app/src/main/ml/rfgbmmetamodel.tflite (tflite, 6962 bytes, 4 tensors)

sequential_2/dense_5/BiasAdd/ReadVariableOp f4 [5]
0	0xbb062a85	-0.002047212
1	0xbc4b0d95	-0.012393375
2	0x3bbe7b07	0.005813006
3	0xba077a02	-0.0005168022
4	0x3c15ccd6	0.009143075

sequential_2/dense_4/BiasAdd/ReadVariableOp f4 [100]
0	0x3b8496d4	0.0040463004
1	0x3ca98cd7	0.02069704
2	0x3b9c6f94	0.0047740433
3	0x3d6e09ef	0.058114942
4	0xbd031888	-0.032005817
5	0x00000000	0.0
6	0xbc38d800	-0.011281967
7	0x3d31faa0	0.043451905
8	0x3d0e1aef	0.034693655
9	0x3c99028e	0.018677976
10	0x3b82fd7a	0.003997502
11	0xbca8726a	-0.02056237
12	0xbc93bb45	-0.018033633
13	0xbcd0e18d	-0.025498176
14	0x00000000	0.0
15	0xbd94f862	-0.07273938
16	0xbc554dee	-0.013019068
17	0x3cd0c98b	0.025486728
18	0x3d4318b5	0.047630984
19	0x3ccd1003	0.025032049
20	0xbd0c3510	-0.03423029
21	0x3d90d718	0.07072276
22	0xbcef527f	-0.029214142
23	0x3d862b60	0.06551242
24	0x3ad26d9b	0.0016054393
25	0xbd2ae24c	-0.04171972
26	0xbd1322b2	-0.03592176
27	0xbd246e9b	-0.040144544
28	0xbcebe781	-0.028796913
29	0xbc94af35	-0.018149951
30	0x3ce34167	0.027741147
31	0x3de276a4	0.11057785
32	0xbcfd3f78	-0.030914053
33	0x3b304016	0.0026893667
34	0x3d923799	0.07139511
35	0xbcfdd869	-0.030986981
36	0x3d22b462	0.039722808
37	0xbcbb3343	-0.022851592
38	0x3d97be2d	0.0740932
39	0xb9858e44	-0.00025473733
40	0x3ba06207	0.0048944983
41	0x3caab9ee	0.020840611
42	0x3d2f831f	0.042849656
43	0xbc6db7ae	-0.014509125
44	0xbc460c1e	-0.01208785
45	0xbd5b30b9	-0.053513262
46	0xbd7eb94d	-0.062188435
47	0xbca9b499	-0.020715998
48	0x3c3e8706	0.011628872
49	0xbbb649f2	-0.005563014
50	0x3d57e893	0.052712034
51	0xbca26fef	-0.019828765
52	0xbd145331	-0.03621215
53	0x3b1edada	0.0024239332
54	0xbcceebc1	-0.0252589
55	0x3d16744b	0.036732
56	0xbd44b27c	-0.04802178
57	0xbd956e9f	-0.0729649
58	0x3cc4e500	0.024034977
59	0x3c80e11f	0.015732346
60	0x3d7df827	0.062004235
61	0xbd4aec5b	-0.049541812
62	0xbb624179	-0.0034523888
63	0xbcb3714c	-0.02190461
64	0x3d13359b	0.035939794
65	0x3bad3d5e	0.0052868566
66	0xbd421e21	-0.047392014
67	0x00000000	0.0
68	0xbdb1e9eb	-0.086871944
69	0x3c56f1d9	0.013119184
70	0x3e09f0ff	0.13470839
71	0x3dabb5e8	0.08384305
72	0x3d052a27	0.032510903
73	0x3c512408	0.012764938
74	0xbaeb4dc2	-0.0017952251
75	0x3d582e8f	0.052778777
76	0x3cd94e59	0.026526617
77	0x3b786460	0.0037901625
78	0xbd1a2da9	-0.0376412
79	0x00000000	0.0
80	0x3c30a161	0.010780663
81	0x3cf9c368	0.030488685
82	0x3c0d3f57	0.008621058
83	0x3caf0270	0.021363467
84	0x3e0002c9	0.12501062
85	0x3b838c11	0.0040145
86	0xbca3ea11	-0.020009072
87	0x3ce8e4c9	0.028429406
88	0xbd088769	-0.033332262
89	0xbd1ff825	-0.03905501
90	0xbd27c914	-0.040963247
91	0x3d912956	0.07087962
92	0xbca2c6d2	-0.019870196
93	0xbc91b5e5	-0.01778693
94	0x3d2f174c	0.042746827
95	0x3d05bddb	0.032651763
96	0xbc193b41	-0.009352506
97	0x3db224e9	0.08698446
98	0xbd2b3cb3	-0.041805934
99	0x3c1c989e	0.009557871

sequential_2/dense_4/MatMul f4 [100, 5]
0	0xbda7628e	-0.08173095
1	0x3e463532	0.1935623
2	0xbd811a99	-0.06303901
3	0xbc998827	-0.01874168
4	0xbe206d4c	-0.15666693
5	0xbe47c548	-0.1950885
6	0x3e822695	0.2542006
7	0xbe22ae4b	-0.158868
8	0xbeb91ce0	-0.36154842
9	0xbe8f2e9e	-0.27965254
10	0xbcc02539	-0.02345525
11	0x3d35ebbf	0.044414278
12	0x3ddb23a3	0.107001565
13	0x3daf3344	0.085547
14	0x3e3b9f03	0.18322377
15	0xbe5fee87	-0.21868335
16	0xbb9b3edf	-0.0047377194
17	0xbd4480e6	-0.04797449
18	0x3e75e950	0.24014783
19	0xbd86fb4c	-0.065909
20	0x3e90fb9d	0.28316966
21	0x3e61704c	0.22015494
22	0x3dcbd3d5	0.09952513
23	0x3c7f2b3d	0.015574274
24	0xbe861f5d	-0.26195803
25	0xbe14ca3c	-0.14530271
26	0xbdfb8ec5	-0.122830905
27	0xbe25a71e	-0.16177031
28	0xbe363948	-0.17795289
29	0xbdce7136	-0.10080187
30	0x3e4ece0d	0.2019579
31	0x3d81b36b	0.063330494
32	0xbc5f7a63	-0.013640019
33	0xbb39cffa	-0.0028352723
34	0xbe2ac12e	-0.16675255
35	0x3e50f150	0.20404553
36	0xbe5b43ba	-0.21412554
37	0x3e0d3cd0	0.1379273
38	0xbee33c54	-0.44381964
39	0x3d4d446a	0.050114073
40	0xbd39b591	-0.04533917
41	0x3ea3b6c2	0.3197537
42	0xbd439964	-0.047753707
43	0x3e8fa321	0.28054145
44	0xbe886bb3	-0.26644668
45	0x3e8765db	0.26444897
46	0x3dbf4b31	0.093405135
47	0xbe7c9ea4	-0.24669892
48	0xbeac642c	-0.33670175
49	0xbd2cfcc2	-0.042233236
50	0xbd1a3d88	-0.037656337
51	0xbe5d6cd0	-0.2162354
52	0x3d5656d3	0.052328896
53	0x3e82a7ec	0.2551874
54	0xbb8727f4	-0.004124636
55	0x3e33fd51	0.17577101
56	0xbe262190	-0.1622374
57	0x3da696ac	0.08134207
58	0xbe66d742	-0.22543052
59	0x3b28ef0b	0.0025777246
60	0xbcb6b453	-0.022302782
61	0xbe5ab838	-0.21359336
62	0x3e80ffe0	0.25195217
63	0x3d8b6a31	0.06807364
64	0x3ab9ab0f	0.0014165359
65	0xbe5485bf	-0.20754145
66	0xbe11135e	-0.14167544
67	0xbe6c0dc8	-0.23052132
68	0x3c4bfa68	0.012449838
69	0xbe3479b7	-0.17624556
70	0xbd5054c8	-0.050862104
71	0xbdfc51c5	-0.12320284
72	0xbe367476	-0.17817864
73	0xbdc0e6aa	-0.09418996
74	0xbd8da70e	-0.06916629
75	0x3ce829d2	0.028340254
76	0x3d02885f	0.031868335
77	0x3dcebb27	0.1009429
78	0x3dcf9392	0.10135569
79	0xbe5ede21	-0.21764423
80	0xbe836c23	-0.2566844
81	0xbd167bbc	-0.036739096
82	0x3d60be00	0.054868698
83	0xbe4f3090	-0.20233369
84	0x3da5e9a7	0.08101206
85	0xbd18056b	-0.037114542
86	0x3bba2882	0.0056810984
87	0x3c30e62f	0.010797068
88	0x3ec2b110	0.38025713
89	0xbe7d0848	-0.2471019
90	0xbd98aed9	-0.074552245
91	0x3e503df2	0.2033613
92	0x3da22c99	0.079186626
93	0x3ea00b3f	0.3125858
94	0xbe859740	-0.26091957
95	0x3e36011a	0.17773858
96	0xbe198fce	-0.14996263
97	0x3e427ea1	0.18993618
98	0xbea674f7	-0.32511112
99	0x3ea834ed	0.3285288
100	0x3e125f49	0.14294161
101	0xbe78bf11	-0.24291636
102	0x3e11c5ec	0.14235657
103	0x3d36236e	0.044467382
104	0x3dc0bc2d	0.09410892
105	0x3e93c9a0	0.28864765
106	0x3d1e0a23	0.038583886
107	0xbe735af4	-0.23765165
108	0x3e35bdac	0.17748135
109	0xbdbd2a61	-0.09236599
110	0x3dbae87c	0.09126374
111	0x3e48c110	0.19604897
112	0x3b57d152	0.003293116
113	0x3bfd18a0	0.007723883
114	0xbe0ec1d3	-0.13941126
115	0x3d7b6c84	0.061382785
116	0x3e932f45	0.28747
117	0xbda62c3a	-0.08113904
118	0x3e7e28b4	0.24820215
119	0x3de9b287	0.114110045
120	0x3e872457	0.26394913
121	0x3e3f608d	0.18689175
122	0x3c967c46	0.018369805
123	0x3e53960b	0.20662706
124	0x3e384a62	0.17997125
125	0xbe344d8f	-0.17607711
126	0xbe0854c1	-0.13313581
127	0x3d20ae72	0.039228864
128	0x3cb4cad9	0.022069382
129	0x3c2e5b8d	0.010641945
130	0x3c93cbe6	0.018041562
131	0xbe60ff13	-0.21972303
132	0x3e306abb	0.17228214
133	0x3cb6148d	0.022226596
134	0x3c8cea0d	0.017201448
135	0x3dcfd51e	0.10148071
136	0x3dd34a80	0.10316944
137	0xbdfe1c24	-0.12407711
138	0x3ce64a87	0.02811171
139	0xbe9f3e2f	-0.3110213
140	0xbdbd706d	-0.09249959
141	0x3da73bff	0.0816574
142	0x3ca64617	0.020297093
143	0x3d6334e4	0.055470362
144	0x3e61926e	0.22028515
145	0x3e62087c	0.22073549
146	0xbaad2d41	-0.0013212339
147	0xbd577f0c	-0.052611396
148	0xbe029208	-0.12751019
149	0xbdc30daa	-0.095240906
150	0xbd2503d9	-0.040286873
151	0xbceea038	-0.029129133
152	0x3ddfcf90	0.10928261
153	0x3e7ccebc	0.24688238
154	0x3e988f8b	0.29797015
155	0x3e819962	0.25312334
156	0xbdb07397	-0.08615797
157	0xbe721bf9	-0.23643483
158	0xbe8627f5	-0.2620236
159	0xbe013eca	-0.12621608
160	0x3e484716	0.19558367
161	0x3de188e7	0.1101244
162	0x3d68cc6f	0.056835588
163	0x3547b2d7	7.4393523e-07
164	0xbe00ad34	-0.12566072
165	0x3e39f0c8	0.18158257
166	0x3db69ea6	0.089169785
167	0x3db8d8ff	0.09025764
168	0x3e6632b3	0.22480278
169	0xbc3750a9	-0.0111886645
170	0xbe42d5e6	-0.19026908
171	0xbc113367	-0.008862353
172	0xbe1e603a	-0.15466395
173	0x3e1843ca	0.1486961
174	0x3e8dd07b	0.2769812
175	0xbe76969c	-0.2408089
176	0x3e7fb859	0.24972667
177	0x3ded99ed	0.11601625
178	0x3c9584fe	0.018251892
179	0xbe478aa5	-0.19486482
180	0x3e4b3151	0.19843031
181	0xbd81187f	-0.063035004
182	0x3e834a47	0.25642607
183	0xbd542c25	-0.051799912
184	0xbd89a850	-0.06721556
185	0x3e529350	0.20564008
186	0x3e7bad1c	0.24577755
187	0x3e35d609	0.17757429
188	0x3c54ccd9	0.012988293
189	0xbdefd05b	-0.117096625
190	0xbe859255	-0.26088205
191	0x3e1e3b13	0.15452223
192	0xbe156e6f	-0.14592908
193	0x3e2e2733	0.17007141
194	0x3e835493	0.25650463
195	0xbeabd834	-0.33563387
196	0x3d9718e1	0.07377792
197	0x3da5dae6	0.08098392
198	0xbde7fb72	-0.11327256
199	0xbdec3f47	-0.11535507
200	0x3e43cb56	0.19120535
201	0x3e37def3	0.17956142
202	0xbc278789	-0.010225185
203	0x3de51087	0.11184793
204	0xbe43a339	-0.19105233
205	0x3ca125a0	0.019671261
206	0x3e2b562b	0.16732089
207	0x3da59eb8	0.08086914
208	0x3d9778e0	0.07396102
209	0xbcf16469	-0.029466825
210	0xbe8e1b03	-0.27754983
211	0xbc155834	-0.009115268
212	0xbcb03518	-0.021509692
213	0x3eaaffdd	0.33398333
214	0x3ea1800e	0.3154301
215	0xbe3820ad	-0.17981215
216	0xbdc33af3	-0.09532728
217	0x3d0b5706	0.03401854
218	0x3deaef5d	0.11471436
219	0x3a97f912	0.0011594614
220	0x3e885e39	0.26634386
221	0x3e2cffc1	0.16894437
222	0x3dc29301	0.09500695
223	0x38687c3c	5.5428813e-05
224	0x3df60bec	0.12013993
225	0x3d362e0f	0.04447752
226	0x3e12ccf7	0.14336
227	0x3e55cbb6	0.20878491
228	0x3df519cb	0.1196781
229	0x3d2ad6d0	0.041708767
230	0x3dd9236a	0.10602458
231	0x3dfc7588	0.12327105
232	0xbdb165ed	-0.08662019
233	0xbe5981d9	-0.21240939
234	0x3ccbbe15	0.024870912
235	0x3e888920	0.26667118
236	0x3b987bdb	0.0046534366
237	0xbd967c9d	-0.07347987
238	0xbe088948	-0.13333619
239	0xbb5ba7dd	-0.0033516802
240	0xbe2bb50c	-0.16768283
241	0xbe3cb704	-0.1842919
242	0x3cebb414	0.028772391
243	0x3e1679df	0.14694928
244	0x3e3a81c7	0.18213569
245	0x3e4d0031	0.20019604
246	0x3e5fd0fd	0.21857066
247	0x3e1dc2dc	0.15406364
248	0xbe16030a	-0.14649597
249	0x3d50b297	0.050951567
250	0x3d14c805	0.036323566
251	0xbe6e0154	-0.23242694
252	0xbe23d553	-0.15999345
253	0xbe69f9ab	-0.22849147
254	0x3ecd6f49	0.40123966
255	0x3e6d1fbd	0.23156638

sequential_2/dense_5/MatMul f4 [5, 100]
0	0xbe161182	-0.14655116
1	0x3e5d5b23	0.21616797
2	0x3d8a344e	0.067482576
3	0xbe813a02	-0.2523957
4	0x3e22abcc	0.15885848
5	0xbe065152	-0.13116959
6	0x3e8284b2	0.25491863
7	0x3e7aa0bb	0.24475376
8	0x3de9cdda	0.11416216
9	0xbcbbbe96	-0.022918027
10	0x3de58979	0.112078615
11	0x3d510ad0	0.051035702
12	0x3e1a2ad3	0.15055399
13	0x3e00478b	0.12527291
14	0xbd9018f8	-0.070360124
15	0x3e252ea6	0.16131076
16	0xbd4f9f21	-0.050688867
17	0xbd9d30a4	-0.07675293
18	0xbe35ca0a	-0.17752853
19	0xbcccf64b	-0.025019785
20	0xbe001cd4	-0.12510997
21	0x3e84966d	0.25896016
22	0x3d954b52	0.07289757
23	0xbd59576e	-0.053061895
24	0x3d8cfede	0.068845496
25	0x3cc9eff7	0.024650557
26	0x3e0800bc	0.1328153
27	0x3a9909fb	0.0011675948
28	0xbdb9736b	-0.09055217
29	0xbdb84bbe	-0.08998822
30	0xbe4db8f0	-0.2009008
31	0x3e679688	0.22616017
32	0xbe122921	-0.14273502
33	0x3dc1a723	0.09455707
34	0xbea31443	-0.31851396
35	0x3e457b39	0.19285287
36	0x3e70cb43	0.23515038
37	0x3da1d42a	0.07901795
38	0xbe111cd1	-0.14171149
39	0x3cb6fd74	0.022337653
40	0x3e27da8e	0.16391966
41	0xbe391558	-0.18074548
42	0xbe60e13e	-0.21960923
43	0x3d214782	0.039374836
44	0x3d716220	0.05893147
45	0x3c94a7cf	0.018146424
46	0xbd660c3d	-0.056164015
47	0x3e39955f	0.18123387
48	0xbe39959d	-0.18123479
49	0x3d769b2d	0.06020658
50	0xbe90f76b	-0.28313765
51	0xbd548d92	-0.051892824
52	0xbd6d95ab	-0.058004063
53	0x3d1abfdf	0.03778064
54	0x3d33d7e5	0.043907065
55	0xbe82a08b	-0.2551311
56	0x3e48267d	0.19545932
57	0xbd8940e7	-0.06701832
58	0xbdf46d40	-0.119349
59	0x3e25bf6b	0.16186301
60	0xbe9b9799	-0.30389097
61	0xbc8e45e6	-0.017367315
62	0xbd23d7a1	-0.04000056
63	0x38c87b50	9.559712e-05
64	0x3d612bde	0.054973476
65	0xbe2bf094	-0.16790992
66	0xbdf5560c	-0.11979303
67	0xbe02c916	-0.1277202
68	0xbddecf11	-0.108793385
69	0x3d0d6244	0.03451754
70	0xbcff4f74	-0.031165816
71	0xbe57b427	-0.21064816
72	0x3d1c8a84	0.038218036
73	0xbe19afbb	-0.15008442
74	0x3d0497c1	0.032371286
75	0xbdc04587	-0.09388261
76	0x3e4efe3c	0.2021417
77	0xbd07c040	-0.03314233
78	0x3dd15897	0.10221975
79	0x3dce74f2	0.10080899
80	0x3e23697a	0.15958205
81	0xbe3691d1	-0.17829062
82	0xbd02a457	-0.031895008
83	0xbd2dc8c8	-0.042427808
84	0x3ebb8b8a	0.36629897
85	0xbd171269	-0.03688279
86	0xbe395f16	-0.18102679
87	0x3dc74d55	0.09731547
88	0xbe8d901f	-0.27649018
89	0xbdd41626	-0.10355787
90	0xbc5d0082	-0.013488891
91	0xbe9c046f	-0.30472133
92	0x3d5d1554	0.05397542
93	0xbe427385	-0.1898938
94	0xbda38d15	-0.07985894
95	0xbd25f516	-0.040516935
96	0xbdbc0641	-0.0918088
97	0xbd774903	-0.060372364
98	0x3e0c6b93	0.13712911
99	0xbc9d6d3a	-0.019217122
100	0xbe0ff56f	-0.14058469
101	0xbe9f198c	-0.31074178
102	0x3e2b5b45	0.16734035
103	0xbeb29dd5	-0.3488604
104	0x3e1afe20	0.15136003
105	0xbc918220	-0.017762244
106	0x3e24aed2	0.16082314
107	0x3e4dedce	0.20110247
108	0xbda89a35	-0.08232538
109	0xbe42a703	-0.19009022
110	0xbe236ae3	-0.15958743
111	0xbc1aa65b	-0.009439076
112	0x3e627ccc	0.22117919
113	0x3e5a25cb	0.2130348
114	0x3e5beb55	0.21476491
115	0x3dd72b85	0.105063476
116	0xbca7084a	-0.020389695
117	0xbe8d367b	-0.27580628
118	0xbe84def6	-0.25951356
119	0x3e7bc983	0.2458859
120	0xbc22b2d3	-0.00993033
121	0xbe88d9ef	-0.2672877
122	0x3e06a790	0.13149858
123	0xbe3519d7	-0.17685638
124	0xbd19f74b	-0.037589353
125	0xbdcc33a8	-0.0997079
126	0x3e824750	0.25445032
127	0x3deda1de	0.11603139
128	0xbdbabfb6	-0.09118597
129	0x3e37f2c3	0.179637
130	0x3e0548f9	0.13016118
131	0x3c24d122	0.010059627
132	0xbd016556	-0.031590782
133	0xbe8d2f11	-0.2757497
134	0x3e1b95a5	0.15193804
135	0xbe6b98db	-0.23007528
136	0x3dda5aae	0.10661827
137	0xbdde4c45	-0.10854391
138	0xbd6a6698	-0.057226747
139	0x3e46f92d	0.1943099
140	0x3c183cdd	0.009291855
141	0xbd01e91a	-0.031716444
142	0xbe6146ef	-0.21999715
143	0xbc964987	-0.018345607
144	0xbe3324ef	-0.17494558
145	0xbc94e777	-0.018176777
146	0x3e29a6bd	0.16567512
147	0xbe2369e6	-0.15958366
148	0xbdd06889	-0.101761885
149	0xbd8283ea	-0.06372817
150	0x3e304915	0.17215379
151	0x3cb34af5	0.021886328
152	0x3d3366e5	0.0437993
153	0xbe671e5e	-0.22570178
154	0xbd8bcb97	-0.06825941
155	0x3be3a0e8	0.0069466718
156	0x3d897c85	0.06713203
157	0x3dc20df1	0.09475315
158	0x3e3b326f	0.18280958
159	0x3e86d322	0.26332957
160	0x3db16d56	0.08663432
161	0xbce531ea	-0.027977902
162	0x3dffc965	0.12489585
163	0xbca620b6	-0.02027927
164	0x3db9f867	0.09080582
165	0xbe736a5b	-0.2377104
166	0xbe514c1b	-0.20439188
167	0xbc5ddfa0	-0.013542086
168	0xbd943709	-0.072370596
169	0xbdfdf13e	-0.12399529
170	0x3e34a7b2	0.17642096
171	0xbe2afda8	-0.16698325
172	0x3c649536	0.01395159
173	0xbd42c704	-0.047553077
174	0xbb04f196	-0.0020285598
175	0xbe666e36	-0.2250298
176	0xbc2bc3c0	-0.010483682
177	0x3e061951	0.13095595
178	0x3e01af4c	0.12664527
179	0xbe6e8861	-0.23294212
180	0xbd9b063f	-0.07569551
181	0x3e500449	0.20314135
182	0x3e70dded	0.23522158
183	0x3daf87e6	0.085708424
184	0x3e13821c	0.14405102
185	0x3dd6ff00	0.10497856
186	0xbcbd62e9	-0.023118453
187	0xbe324c88	-0.17412007
188	0xbe1aa5ca	-0.15102306
189	0xbcfa3b7a	-0.030545939
190	0xbe599660	-0.2124877
191	0x3d522537	0.051305022
192	0xbe18e88a	-0.14932457
193	0xbe8ea435	-0.27859655
194	0xbc0da915	-0.008646269
195	0xbe6961f6	-0.22791275
196	0xbe505fa8	-0.2034899
197	0x3de96871	0.11396874
198	0xbe2baba2	-0.16764691
199	0xbd285876	-0.041099988
200	0xbe007f6a	-0.12548605
201	0x3dc27b81	0.09496213
202	0x3e097a6d	0.13425608
203	0x3e811330	0.2520995
204	0xbe2f01af	-0.17090486
205	0x3e241a27	0.16025601
206	0x3dee824e	0.116459474
207	0xbd5f3925	-0.054497857
208	0x3e4fa7a7	0.20278798
209	0xbe65ad06	-0.22429284
210	0x3de3964c	0.11112651
211	0x3c61dd4f	0.013785674
212	0xbd72b1f7	-0.05925175
213	0xbdf11b16	-0.11772744
214	0xbe38b1a9	-0.18036522
215	0x3a7d652a	0.00096662587
216	0xbdc00845	-0.09376577
217	0x3e71663a	0.23574153
218	0xbc8bf453	-0.017084276
219	0xbe3dd1cf	-0.18537067
220	0x3e0c2f4b	0.13689916
221	0xbd5df71e	-0.054190747
222	0xbdd9ec53	-0.106407784
223	0x3e1ae996	0.15128168
224	0x3e550385	0.20802124
225	0xbe10acdf	-0.14128445
226	0x3e4b3183	0.19843106
227	0xbd853f32	-0.06506194
228	0xbdbfc43f	-0.09363603
229	0xbe70e10b	-0.23523347
230	0x3e1b5be3	0.15171771
231	0xbe68e8a8	-0.22745001
232	0xbdc9f62c	-0.09861407
233	0x3dd2f94e	0.10301457
234	0xbdb3c5db	-0.08777972
235	0xbd975011	-0.07388318
236	0xbe48a53e	-0.19594285
237	0xbd3332cf	-0.043749627
238	0xbe2c3015	-0.16815217
239	0xbd4b4f0f	-0.049635943
240	0x3df7879a	0.12086411
241	0xbdc0b597	-0.094096355
242	0x3e79fe5f	0.24413441
243	0x3e07ff89	0.13281073
244	0x3d1272ea	0.03575412
245	0xbe2c5fce	-0.16833422
246	0x3e2b8c09	0.16752638
247	0x3d7c403d	0.0615847
248	0x3dfa0eba	0.1220984
249	0xbe430a03	-0.19046788
250	0xbd5f9234	-0.05458279
251	0xbdf7b392	-0.12094797
252	0x3dabbc43	0.083855174
253	0xbd0f90be	-0.035050146
254	0x3e61015c	0.21973175
255	0xbe0e5858	-0.13900888
